gnb_model.tflite (tflite, 43580 bytes, 78 tensors)

arith.constant f4 [13]
00000000: a068 ef3d ca28 eb3d 26d5 773d ce90 3c3d
00000010: f231 353d e20b 833d 6d6e 3c3d 1ef7 783d
00000020: e47b 8b3d a56c 773d 96c4 673d c4c8 883d
00000030: 5e60 893d
0.116898775 0.11482389 0.06050601 0.046036534 0.044237085 0.06398751 0.046003748 0.060782544
0.0681074 0.060406346 0.056583963 0.06678918 0.06707834

arith.constant1 f4 [13]
00000000: 4dd8 2f3d 75a8 293d f16f 3c3c cb2c da3b
00000010: db73 c93b 17bf 523c 48dd d93b e729 3e3c
00000020: 1bc2 6e3c 27d1 3b3c bccc 243c fa9a 653c
00000030: 0899 673c
0.04293089 0.04142042 0.011501298 0.006658172 0.0061478443 0.012862942 0.0066486932 0.01160667
0.014572646 0.01146344 0.010058578 0.014014 0.014135607

arith.constant2 f4 [13]
00000000: 8c49 ac3d 6953 8a3d 9d11 253d c8ae 473d
00000010: 7a33 023d e179 f53c 94fb 333d df54 493d
00000020: 5907 843d 9484 853d 411e 553d 1f12 283d
00000030: 7eaa 263d
0.084124655 0.067541905 0.0403 0.04875067 0.031787373 0.029965343 0.043941095 0.049153205
0.06446714 0.06519428 0.052030805 0.041032907 0.040689938

arith.constant3 f4 [13]
00000000: d321 b63c 56cf 6a3c 9b30 a73b ada8 f43b
00000010: 4909 503b ecde 383b 0ac4 c63b 44b7 f83b
00000020: ecea 553c 41c5 5a3c 4858 0b3c 8653 ad3b
00000030: e170 aa3b
0.022232926 0.014331659 0.00510223 0.007466397 0.0031743816 0.0028209044 0.00606585 0.0075902063
0.013056498 0.013352693 0.008504935 0.005289498 0.0052014445

arith.constant4 f4 [13]
00000000: a92e 453e 627d ec3d d4b6 963d 9b8e ae3d
00000010: 4dde 473d 0f07 903d 5bc8 a63d de01 933d
00000020: e381 6b3d c0e9 5b3d c43d 453d d2b7 4a3d
00000030: 958d 3c3d
0.1925608 0.115473524 0.073590904 0.085232936 0.048795987 0.07032596 0.081436835 0.071780905
0.057496917 0.05368972 0.048154607 0.04949171 0.04603346

arith.constant5 f4 [13]
00000000: e491 ee3d 4b95 2b3d 4460 8b3c 6af6 ba3c
00000010: 2b1d f53b 0391 7e3c f9ad aa3c b49a 843c
00000020: 1c29 2a3c 3e5f 143c 72b6 ee3b 4227 fc3b
00000030: 5825 da3b
0.1164892 0.041890424 0.017013676 0.022822578 0.0074802837 0.015537503 0.02083491 0.01618705
0.010385778 0.009055911 0.007284933 0.0076951096 0.0066572838

arith.constant6 f4 [13]
00000000: 1969 9c3d ebcf e43c e010 253d 7f42 153d
00000010: d59b 6d3c 835c 353c cfe3 523c 0765 b03c
00000020: c2f1 453d 32b7 f03c f75b ce3c 88b1 073d
00000030: 27ae 5a3d
0.07637233 0.027931174 0.040299296 0.03644037 0.014502485 0.01106942 0.012871697 0.021532549
0.04832626 0.02938423 0.025190337 0.03312829 0.05338874

arith.constant7 f4 [13]
00000000: 5f1c 963c 879f 203b 1a2f a73b f4b2 883b
00000010: f035 2d3a 90d2 c939 3972 083a 73eb be3a
00000020: e86a f03b 1dc5 313b 80a5 023b 45f5 613b
00000030: 94b6 123c
0.018324075 0.0024509148 0.0051020505 0.0041717235 0.00066074636 0.0003849459 0.0005205009 0.0014566019
0.007336963 0.0027125545 0.0019935071 0.0034478467 0.008954663

arith.constant8 f4 [13]
00000000: 3c53 1b3e 5e99 fe3d 62bf cc3d 6eac a43d
00000010: 632c 8a3d ab1a d13d 953d b13d 36ab a83d
00000020: 8f15 9f3d cbce 9e3d 375b 833d 64d6 9b3d
00000030: 5502 d63d
0.1516847 0.12431596 0.09997441 0.08040701 0.06746747 0.10210165 0.08654324 0.08235781
0.07767784 0.077542864 0.06413882 0.07609251 0.104496635

arith.constant9 f4 [13]
00000000: de08 943d 11de 463d 1f9d 003d e463 a63c
00000010: ea4a 6a3c 2f25 063d 54c1 c03c d78f ae3c
00000020: 6149 9b3c 58bf 9a3c 8bbe 533c 4803 953c
00000030: 2a83 0c3d
0.07228254 0.048551623 0.031399842 0.020311303 0.0143000875 0.032750305 0.023529686 0.021308823
0.018955888 0.018890068 0.012923847 0.018190041 0.034304775

arith.constant10 f4 [13]
00000000: aa6d e33d 5817 8a3d 5145 663d f955 563d
00000010: d5c4 583d 1ab4 523d 0f1f 643d bc56 913d
00000020: 921e 853d 772a 7e3d 2eaa 4c3d a1f7 6e3d
00000030: 62b7 803d
0.11104901 0.06742734 0.05621845 0.052328084 0.05292209 0.05144129 0.055693682 0.070966214
0.064999714 0.062052216 0.049966983 0.058341626 0.062849775

arith.constant11 f4 [13]
00000000: aaaf 1e3d 9203 6a3c 73ad 223c 12f1 0c3c
00000010: df28 103c 8634 083c 9aa7 1f3c 839c 813c
00000020: 7877 593c f530 463c 7f82 003c 7332 2f3c
00000030: 9651 4b3c
0.038741745 0.014283078 0.009929049 0.0086023975 0.008798807 0.008313304 0.009744549 0.0158217
0.0132731125 0.012096633 0.007843613 0.01069318 0.012409588

arith.constant12 f4 [13]
00000000: e156 ea3d 9e40 783d 4bf2 673d e06a 823d
00000010: e118 6c3d 040c 793d fa87 663d c423 963d
00000020: 7649 ad3d eb03 a13d 0f05 8a3d 2af6 b33d
00000030: 5dd5 e73d
0.11442352 0.0606085 0.056627553 0.06368041 0.057640914 0.060802475 0.05628202 0.073310405
0.08461277 0.078620754 0.06739246 0.087871864 0.11319993

arith.constant13 f4 [13]
00000000: 177a 283d 8313 3d3c c50d 253c 77ba 503c
00000010: 9303 2b3c d649 3e3c ae0b 233c c950 8a3c
00000020: 7440 b83c 5b14 9f3c 9fc5 693c 14b8 c63c
00000030: 98e4 243d
0.04113206 0.0115402965 0.010074084 0.012739769 0.010437864 0.011614284 0.009951515 0.016884224
0.022491671 0.019418886 0.014268308 0.024257697 0.040257066

arith.constant14 f4 [13]
00000000: 3192 df3d 54f2 103d 8de9 f93c dbc2 0a3d
00000010: 21dc 603d 1189 a13d 4f1d 503d 14cc 353d
00000020: a0bc 393d df15 813d 5898 d43d 9356 b03d
00000030: 96d7 9c3d
0.10916556 0.035387352 0.030506874 0.033877235 0.05489743 0.078874715 0.0508092 0.044384077
0.045345902 0.06303 0.1038062 0.08610263 0.07658307

arith.constant15 f4 [13]
00000000: 5c59 193d abe9 803b f59c 3f3b 484a 6c3b
00000010: 471f 1b3c de1b a03c e4e0 043c 28cb ca3b
00000020: 97ad d33b 837c 4c3c 63a9 0a3d 28cc be3c
00000030: bcf0 963c
0.037438735 0.0039341054 0.002923784 0.0036055017 0.009467906 0.019544538 0.008110259 0.006188769
0.0064599025 0.012480858 0.033852946 0.023290709 0.018425338

arith.constant16 f4 [13]
00000000: da23 d83d 5fb4 573d 9d4b 853d a63f 573d
00000010: cec0 713d 57d8 313d 28e5 403d d5fb 2d3d
00000020: 9b6b 3f3d a115 863d 3084 953d 9425 cb3d
00000030: 5559 b43d
0.10553713 0.05266225 0.06508563 0.052550934 0.059021764 0.04341921 0.04709354 0.042476494
0.04673348 0.06547094 0.073006034 0.09919277 0.08806101

arith.constant17 f4 [13]
00000000: 1253 0f3d 5fbf 0e3c ba0a 5a3c 0d25 0e3c
00000010: 464e 333c 8612 c23b 084f e43b 88bc b93b
00000020: b8d4 e03b 97a1 5c3c 612b 893c 9938 fd3c
00000030: 5193 c73c
0.03499133 0.008712619 0.0133082215 0.008675826 0.010943955 0.0059226183 0.006967429 0.0056682266
0.0068612956 0.01346626 0.016744317 0.030910777 0.024362238

arith.constant18 f4 [13]
00000000: dbd0 d03d ea47 183d 423d 0b3d f26a eb3c
00000010: c274 dd3c 96cc da3c c458 093d 432b f53c
00000020: 9e66 e73c f246 dd3c b9a7 ea3c 35aa d33c
00000030: 0002 d93c
0.10196086 0.037177958 0.033993967 0.028737519 0.027033214 0.026708882 0.03353192 0.029927855
0.028247174 0.027011368 0.02864443 0.025837997 0.026490211

arith.constant19 f4 [13]
00000000: 8bc6 053d f249 8e3b e4eb 6d3b f707 2a3b
00000010: 1e76 163b 6edf 123b 687f 673b 9968 383b
00000020: 3547 243b e637 163b 6dee 283b 6d73 093b
00000030: 477a 103b
0.03266005 0.004342311 0.0036303932 0.0025944689 0.0022958587 0.0022411007 0.0035323743 0.0028138517
0.0025066857 0.0022921502 0.0025776878 0.002097334 0.002204554

arith.constant20 f4 [13]
00000000: c58d 973d 760a db3c 48e7 a73c 5efe 953c
00000010: 5bfa 033d d754 363d 63ec e53c 93d9 233d
00000020: 0365 e33c cdeb ef3c 45a1 2e3d 8d78 5e3d
00000030: e4e9 4f3d
0.07400087 0.026738387 0.020496026 0.018309768 0.03222118 0.044514503 0.02806682 0.040002417
0.027758127 0.029287243 0.042634267 0.054314185 0.050760165

arith.constant21 f4 [13]
00000000: eaee 8c3c 8832 133b 36fb ac3a ea0b 8a3a
00000010: d4c0 553b b8fc cb3b e32f 223b d7ba a43b
00000020: 99a3 1e3b 3399 303b 6b1e bb3b f3d7 173c
00000030: 419f 043c
0.017203767 0.002246054 0.0013197425 0.0010532115 0.0032616155 0.006225195 0.002474778 0.005027156
0.0024206399 0.0026946783 0.005710413 0.009267795 0.00809461

arith.constant22 f4 [13]
00000000: 12af 913d 0946 403d 5e8c 583d 93d4 273d
00000010: 2369 393d 13dd 473d 3cca 433d 9079 7b3d
00000020: b543 823d efdc 823d f720 543d 75e0 923d
00000030: e76b 403d
0.0711347 0.04694179 0.05286824 0.04097421 0.04526628 0.048794817 0.047800288 0.061395228
0.0636057 0.06389796 0.05178925 0.07171718 0.046977904

arith.constant23 f4 [13]
00000000: 423a 823c fad6 e23b d1dd 0f3c acd4 ac3b
00000010: 77ef d23b 281a f53b 7536 eb3b 4604 423c
00000020: 2b3d 503c 2f28 523c d50d 0a3c 755e 843c
00000030: 5930 e33b
0.01589692 0.0069226 0.0087809125 0.005274376 0.006437238 0.0074799247 0.0071781226 0.011841839
0.012709896 0.012826963 0.008426149 0.016158322 0.0069332537

arith.constant24 f4 [13]
00000000: 01b0 0a3e ce4c a53d 3e1f a83d e648 413d
00000010: ddb2 8c3d 86a7 973d 096c 983d dfa4 943d
00000020: ac19 ce3d 1336 923d 6887 a63d 0ed3 953d
00000030: 967e bf3d
0.13543703 0.0807129 0.08209084 0.047188662 0.06870053 0.074049994 0.07442481 0.07258009
0.1006349 0.0713922 0.081312954 0.07315646 0.09350316

arith.constant25 f4 [13]
00000000: 1b0a 6c3d 97a8 a73c 956e ad3c 5f3b e53b
00000010: 5bef 723c d51e 8d3c 7a8d 8e3c d092 873c
00000020: 9d51 023d 0d2c 833c 2529 aa3c 3bbc 893c
00000030: 5001 e13c
0.057626825 0.020466132 0.021170894 0.006995603 0.014827575 0.017226616 0.017401446 0.016549498
0.031816114 0.016012216 0.020771572 0.016813388 0.027466446

arith.constant26 f4 [13]
00000000: 428a aa3d 9193 653d abc6 7b3d a7e9 4f3d
00000010: 92ba 4e3d c85c 703d 294e 713d c626 503d
00000020: 7363 2a3d a2f1 1a3d c0f2 1c3d 6d0b 173d
00000030: 29f1 293d
0.08327152 0.056048933 0.06146876 0.050759938 0.050470896 0.058682233 0.05891243 0.050818227
0.04159875 0.037828095 0.038317442 0.03687613 0.041489754

arith.constant27 f4 [13]
00000000: e874 b23c aeb2 213c 517b 423c f59e 043c
00000010: 681d 033c ac3f 313c 5da4 323c fbec 043c
00000020: b923 b23b 104f 933b 0925 973b e8fc 8b3b
00000030: 1035 b13b
0.02178426 0.009869261 0.011870221 0.008094539 0.008002616 0.010818403 0.010903445 0.008113141
0.0054363874 0.004495509 0.004612569 0.004272092 0.005407937

arith.constant28 f4 [13]
00000000: acd4 c83d 4735 533d b286 0b3d 9489 903d
00000010: 1335 833d d460 203d 0357 273d 0e32 583d
00000020: bed3 303d 52d3 4f3d 72e8 543d 5761 aa3d
00000030: 5693 853d
0.09806189 0.05156448 0.034064002 0.07057491 0.064066075 0.039154842 0.040854465 0.05278211
0.043170683 0.05073864 0.05197949 0.08319347 0.06522243

arith.constant29 f4 [13]
00000000: ec7a f73c b9db 083c 1ee7 6e3b 9d2f 803c
00000010: a443 533c bcd2 9d3b 72d2 ab3b e865 0f3c
00000020: 65db bf3b 7782 043c f311 0b3c 501f b23c
00000030: a2f5 5a3c
0.03020998 0.008353167 0.0036453675 0.015647704 0.012894545 0.0048163813 0.005243593 0.008752324
0.0058550113 0.008087746 0.008488166 0.021743447 0.0133642275

arith.constant30 f4 [13]
00000000: 102f fe3d 41d1 ac3d 8717 813d 746f 4a3d
00000010: 991e 813d c4da 783d 1621 833d f6d1 a33d
00000020: 1e9f 833d 187f 913d 6d94 893d 710d a53d
00000030: ae36 8b3d
0.1241132 0.084383495 0.063033156 0.049422696 0.06304664 0.060755506 0.06402795 0.07999031
0.064268336 0.07104319 0.06717763 0.08059204 0.06797539

arith.constant31 f4 [13]
00000000: 2138 463d 2d41 b73c c281 4c3c 5f73 fb3b
00000010: 2b98 4c3c 99fe 3d3c 4c03 533c 89ab a43c
00000020: ae99 543c 89e4 813c b148 683c 2828 a73c
00000030: 68d5 6d3c
0.048393372 0.022369945 0.012482109 0.0076736654 0.012487452 0.011596345 0.012879204 0.020101326
0.012976093 0.015856044 0.014177487 0.02040489 0.014516212

arith.constant32 f4 [13]
00000000: 7975 af3d ebe8 d03d 44a5 413d 5996 283d
00000010: cea9 123d 1016 2d3d 0512 1c3d 1981 393d
00000020: fb9f 2f3d 2e73 4b3d 47af 5b3d cee8 5c3d
00000030: a217 833d
0.08567328 0.102006756 0.04727675 0.041159008 0.03580647 0.04225737 0.038103122 0.045289133
0.04287718 0.04967039 0.053633954 0.053932957 0.06400992

arith.constant33 f4 [13]
00000000: 42e6 bc3c 62e5 053d aa16 e63b ab64 ae3b
00000010: 07fc 833b 38d3 b73b 6675 953b fe25 d33b
00000020: d341 bd3b 34fa fd3b 6310 143c 2fb8 153c
00000030: e3e4 523c
0.023059014 0.03268946 0.0070217447 0.005322059 0.0040278467 0.005609896 0.004561114 0.006443738
0.005775669 0.007750774 0.00903711 0.009138151 0.012871954

arith.constant34 f4 [13]
00000000: 3c64 163e 5314 dc3d 8769 913d b9a3 813d
00000010: 4a05 9b3d 0c76 a43d 1a4b b23d c33a 8d3d
00000020: 5ae1 ce3d 9886 943d 7df4 833d 6999 ce3d
00000030: 63eb ec3d
0.14686674 0.10746064 0.07100206 0.06330056 0.07569368 0.08030328 0.08705731 0.068959735
0.10101576 0.07252234 0.06443117 0.100878544 0.11568334

arith.constant35 f4 [13]
00000000: adc7 8a3d b798 143d 08be 813c e63e 4e3c
00000010: 7274 933c 0ef6 a53c 4d0d c33c 88c5 743c
00000020: 9d4e 033d 9e5b 873c d5ad 553c 5af3 023d
00000030: 1035 2c3d
0.067763664 0.036278453 0.015837684 0.012588238 0.017999861 0.02025893 0.023810053 0.014939673
0.032057393 0.016523179 0.013041933 0.03197036 0.04204279

arith.constant36 f4 [13]
00000000: d068 f33d 195e 133e e7dc 833d d6af a23d
00000010: 4868 3b3d 3188 2c3d 2a55 423d 3a9f 513d
00000020: 7df1 883d 40bb b93d 610c 683d 9d23 2a3d
00000030: 7c44 5c3d
0.11885226 0.14391364 0.06438618 0.07943694 0.045753747 0.04212207 0.0474445 0.05117724
0.06686685 0.09068918 0.05665243 0.04153787 0.05377625

arith.constant37 f4 [13]
00000000: 63c5 353d 4c41 853d 7461 553c 4a66 a23c
00000010: bf80 d73b 5ca6 b63b 6cb9 e73b 79cf 063c
00000020: c623 663c 77aa d33c e532 253c 599e b13b
00000030: c8d9 143c
0.044377696 0.06506595 0.013023723 0.019824166 0.006576627 0.005574031 0.0070716646 0.008228176
0.014046615 0.02583812 0.010082935 0.005420488 0.009085126

arith.constant38 f4 [13]
00000000: 62dd c93d dd06 b33d 1dea bb3d f5d6 653d
00000010: 3651 b53d a372 873d c898 d33d 7678 e63d
00000020: 490c a53d 6761 d43d cf40 903d c019 a43d
00000030: 12c3 b03d
0.098566785 0.087415434 0.09175513 0.056113202 0.088533804 0.06613662 0.10331875 0.11253445
0.08058984 0.103701405 0.07043611 0.08012724 0.08630957

arith.constant39 f4 [13]
00000000: fd08 fa3c f9a8 c43c c1ab d83c aa11 223c
00000010: 68b9 c93c 0024 613c cb5c 093d baf5 223d
00000020: d025 a73c bf61 0a3d 525d 7f3c fb3b a53c
00000030: 3bb7 bf3c
0.030521864 0.024006354 0.026449086 0.009891907 0.024624541 0.013741493 0.03353576 0.039785124
0.020403773 0.033784624 0.015586214 0.020170202 0.0234028

arith.constant40 f4 [13]
00000000: fac6 263e b86b de3d 33cb a43d 16a7 893d
00000010: 501d 5c3d 350d 793d 4861 693d 36e6 7b3d
00000020: 25e6 7f3d 2e77 6b3d 1288 803d 5c3e a83d
00000030: 63ef 973d
0.16286841 0.108603895 0.0804657 0.06721322 0.053738892 0.06080361 0.05697754 0.061498843
0.062475342 0.057486705 0.06275953 0.08215019 0.07418706

arith.constant41 f4 [13]
00000000: 29ab aa3d 72c6 173d 13a2 a63c b687 683c
00000010: daa4 143c a64b 3e3c af19 273c 0dac 423c
00000020: 3ee7 483c a319 2a3c 37bc 4a3c cfae ad3c
00000030: b2a4 8d3c
0.083334275 0.037054487 0.020340955 0.014192512 0.009072507 0.011614716 0.010198995 0.01188184
0.012262164 0.010382089 0.0123739755 0.02120152 0.017290447

arith.constant42 f4 [13]
00000000: 9fc3 543e 25da cf3d 9fba 9f3d b95f 463d
00000010: 72c2 493d 9dcd 693d d54c 673d 2e9f 8c3d
00000020: 2bbe 953d 1ee0 9b3d 1247 ad3d 25c6 b63d
00000030: 5e0e ab3d
0.20777749 0.1014903 0.07799267 0.048431132 0.049257703 0.057080854 0.056469757 0.068662986
0.07311662 0.07611106 0.08460821 0.08924512 0.0835235

arith.constant43 f4 [13]
00000000: dde1 0a3e 2c8b 043d 468c 9c3c 5076 f13b
00000010: 46c6 f93b f4b4 273c 9922 243c 64ab 723c
00000020: d695 893c e315 953c 613b b83c 8efa cc3c
00000030: cf89 b33c
0.13562723 0.032359287 0.019109856 0.0073688403 0.007622513 0.010236014 0.010018014 0.0148113705
0.01679508 0.018198913 0.022489252 0.025021818 0.021916298

arith.constant44 f4 [13]
00000000: a7ec fb3d c357 8a3d 5bfa 8c3d f551 753d
00000010: 535f 493d 3db4 483d 36e0 1a3d 48d4 123d
00000020: c04b 273d 10c4 3a3d 6a05 753d 3878 6a3d
00000030: 441c 883d
0.12300997 0.067550205 0.06883689 0.059892613 0.049163174 0.049000014 0.03781148 0.03584698
0.040843725 0.045597136 0.059819616 0.057243556 0.06646016

arith.constant45 f4 [13]
00000000: 05b6 423d 1fde 6a3c 79e6 733c cfa2 383c
00000010: 15d1 f83b ff2a f73b f22d 933b 8448 843b
00000020: 54bb ab3b b807 d63b aa2f 383c 0baa 283c
00000030: 4859 633c
0.04753687 0.014335184 0.014886492 0.011269285 0.007593284 0.0075429673 0.004491561 0.004036965
0.005240837 0.006531682 0.011241833 0.010294448 0.013876267

arith.constant46 f4 [13]
00000000: a419 a43d 1b15 693d dda4 5e3d 6d36 413d
00000010: 5a7b 3d3d d2fa 493d aaea 423d fb0e 5f3d
00000020: 90db 603d 004a 8f3d 0ddb 873d 56e8 a93d
00000030: 6e27 c43d
0.08012703 0.056904893 0.054356445 0.047171045 0.046260215 0.049311467 0.047587074 0.054457646
0.05489689 0.06996536 0.066335775 0.08296268 0.09577833

arith.constant47 f4 [13]
00000000: c23b a53c abac 263c 7414 183c 900f e53b
00000010: e14c dc3b f151 fa3b 791e e93b 90a5 183c
00000020: 801e 1b3c 6af6 7b3c a17f 623c a922 b13c
00000030: 9716 ec3c
0.020170096 0.010173003 0.00928222 0.0069903806 0.006723032 0.0076391627 0.0071142283 0.009316817
0.009467721 0.015378574 0.013824374 0.021622973 0.028819365

arith.constant48 f4 [13]
00000000: 42db cd3d 730d ac3d 3b51 ce3d ad04 bd3d
00000010: c8fb ca3d 8139 d63d 6040 dc3d 2dd2 b73d
00000020: eed8 c73d 4d42 d93d bd92 c53d a3bf fd3d
00000030: dac8 023e
0.10051586 0.08401003 0.10074087 0.092294075 0.09911305 0.10460187 0.10754466 0.08975635
0.09758173 0.10608349 0.09647129 0.123900674 0.12771931

arith.constant49 f4 [13]
00000000: bb02 023d d6a2 b53c e997 023d 4439 db3c
00000010: 74d0 fc3c a2cb 0c3d 3ad4 143d 7855 cf3c
00000020: 0010 f53c f3cf 103d 4b84 ef3c 7d8a 453d
00000030: b6e7 513d
0.031740885 0.022172373 0.031883154 0.026760705 0.030861117 0.034373887 0.036335208 0.02530931
0.029914856 0.035354566 0.029237887 0.048227776 0.051246367

arith.constant50 f4 [13]
00000000: d3f2 2b3e c463 c83d 0c38 e83d 9b41 823d
00000010: 24f5 313d be7d 663d 509a 403d e27e 8b3d
00000020: 65ea 963d f289 863d e651 a23d 1146 a73d
00000030: 5f11 a33d
0.16791849 0.09784654 0.11338815 0.063601695 0.043446675 0.05627226 0.047022164 0.0681131
0.07368926 0.0656928 0.07925777 0.08167661 0.07962298

arith.constant51 f4 [13]
00000000: a06a b53d f864 f63c 1971 253d 7836 503c
00000010: 6751 c23b 36fd 223c 049e e33b 5fcc 6e3c
00000020: b5bf 8b3c 0b21 5e3c f4aa a13c a7af ab3c
00000030: 3f29 a33c
0.08858228 0.030077443 0.04039106 0.012708299 0.005930114 0.0099480655 0.006946327 0.014575093
0.017059186 0.013557683 0.019734837 0.020957781 0.019917129

arith.constant53 f4 [13]
00000000: 53d5 44c0 4f63 3c40 13ed 73c1 502d 1c41
00000010: d664 a5c1 3515 cc3f 8c1d eac1 f590 1341
00000020: d64b 04c2 ada5 8e41 2ea2 ccc1 786f 5e41
00000030: fb03 59c1
-3.0755203 2.9435613 -15.245379 9.761063 -20.674236 1.5943972 -29.264427 9.22289
-33.07406 17.830896 -25.57919 13.902214 -13.563472

arith.constant54 f4 [13]
00000000: a38b 9f3f c3b1 0ac1 3784 0ec1 0b26 8bc1
00000010: 031a bdc1 7b87 a6c1 2076 c0c1 9f35 923f
00000020: 0e3b e2c1 08ea 893f c836 43c1 5492 31c1
00000030: b04c e9bf
1.2464489 -8.668399 -8.907279 -17.393576 -23.637701 -20.816153 -24.057678 1.1422614
-28.278835 1.0774546 -12.200874 -11.098225 -1.8226528

arith.constant55 f4 [13]
00000000: 0f23 8ac1 6580 d241 2584 17c2 0578 1c42
00000010: 1448 34c2 51ee 9441 2cf5 10c2 e148 bc41
00000020: 81f1 0bc2 dad3 ea40 9e01 63c1 676e 3a3f
00000030: 9568 2740
-17.267118 26.312693 -37.879047 39.117207 -45.07039 18.616365 -36.239426 23.535585
-34.985844 7.338361 -14.187895 0.7282471 2.6157582

arith.constant56 f4 [13]
00000000: 206c 2cc1 ff92 9640 fb09 0040 648f 3841
00000010: df53 64c1 a5c4 fec0 f453 62c1 de32 d3be
00000020: c279 71c1 19a4 b140 0824 0040 4a56 8140
00000030: fb18 bdbf
-10.776398 4.705444 2.0006092 11.535007 -14.270476 -7.9615045 -14.145496 -0.41249746
-15.092226 5.5512815 2.0021992 4.0417833 -1.4773248

arith.constant57 f4 [13]
00000000: 3d69 fec0 1f8b c140 08e9 29c1 8915 e440
00000010: f5d1 0ac0 2323 8dc1 c88e 1fc0 423b 3440
00000020: 8315 83c1 5bb9 883e 902e 733f e068 79c0
00000030: 2b36 873d
-7.9503465 6.0482326 -10.619392 7.127629 -2.1690648 -17.642157 -2.4930897 2.8161168
-16.385504 0.26703915 0.94992924 -3.897026 0.066021286

arith.constant58 f4 [13]
00000000: baa4 afc0 1579 d2bf bec2 aac0 8e22 bb3d
00000010: 9581 25c1 0085 97c1 e456 adbf ed61 53c1
00000020: 6466 e3c1 d9f8 bb40 bfee 92c1 94c4 0041
00000030: a597 2f40
-5.488858 -1.6443201 -5.3362722 0.0913745 -10.344136 -18.939941 -1.3542142 -13.211408
-28.424995 5.874127 -18.366575 8.047993 2.7436306

arith.constant59 f4 [13]
00000000: 79b1 9dc1 9aa5 d641 74b0 8bc2 b9a6 2342
00000010: df27 33c2 3d8a b141 2e37 bac1 610a cec1
00000020: 1e27 0942 bb83 00c2 9264 8bc0 09be b4c1
00000030: 0d0c cb40
-19.711657 26.83086 -69.844635 40.912815 -44.788937 22.1925 -23.276943 -25.755068
34.2882 -32.128643 -4.3560266 -22.59279 6.345221

arith.constant60 f4 [13]
00000000: c7d5 3340 7f7d 9a41 2adc 29c2 271d 0c42
00000010: 8a44 08c2 f6ed 2d42 c4ff 81c2 57bf d141
00000020: aea8 80c1 84ff b13f 0296 f7c1 fda4 7341
00000030: 653b 99c1
2.809923 19.311277 -42.465004 35.02847 -34.066933 43.482384 -64.99954 26.218428
-16.082363 1.3906102 -30.948246 15.22778 -19.154001

arith.constant61 f4 [13]
00000000: 29d9 95c1 9648 6742 2230 58c2 550f c541
00000010: e05c 5e41 45f1 58c1 c266 6e41 34ab 7cc1
00000020: a480 9ac1 7de7 7e41 eb03 e0c1 cb0c e4c0
00000030: 38e3 0b41
-18.731035 57.820885 -54.047005 24.632486 13.897675 -13.558904 14.900087 -15.791798
-19.312813 15.931516 -28.001913 -7.1265616 8.742973

arith.constant62 f4 [13]
00000000: cbb9 10c1 1246 ef3f 9088 a340 4238 34c1
00000010: 9f7a 5ac1 65bb 15c1 6026 a7c1 164f 1bc1
00000020: 9f4b 26c1 3a57 21c1 dec1 9cbf c021 be40
00000030: 2b26 95c0
-9.04536 1.8693259 5.11042 -11.263735 -13.654937 -9.358251 -20.893738 -9.706808
-10.393462 -10.083796 -1.2246664 5.94162 -4.660909

arith.constant63 f4 [13]
00000000: ef0f 4fc0 5ab1 f23f e821 cbc1 0a6e 4b40
00000010: 101d a7c1 d75b d2c1 3f5f 07c1 3c87 a3c0
00000020: 7148 b5c1 aa92 80c0 87aa a43f df6a 95c1
00000030: 2729 f9c0
-3.2353475 1.8960373 -25.391556 3.1785913 -20.88919 -26.294844 -8.460753 -5.110258
-22.660372 -4.0179033 1.2864541 -18.677183 -7.7862735

arith.constant64 f4 [13]
00000000: 18a4 313f 3e9e dec0 718e bbc1 2be3 8540
00000010: d0cc 6dc1 8521 d7c1 b070 35c1 5087 d3c0
00000020: 7e22 cbc1 a6cd 0040 f675 87c0 c971 f1bf
00000030: 0711 7b3f
0.6939101 -6.9568167 -23.444551 4.1839805 -14.862503 -26.891367 -11.340012 -6.6102676
-25.391842 2.0125518 -4.2331495 -1.886285 0.98072857

arith.constant65 f4 [13]
00000000: c9c7 70c0 ec1a 7e40 3575 84c1 2346 3741
00000010: 7157 42c1 55da 3bc1 d545 f3c0 d5a7 c6c0
00000020: 7550 0ec1 94f3 5c3f d6d1 81c0 474e a740
00000030: 4133 04c1
-3.762194 3.9703932 -16.55723 11.454623 -12.146348 -11.740804 -7.6022744 -6.2079873
-8.894643 0.8630917 -4.0568647 5.2283053 -8.262513

arith.constant66 f4 [13]
00000000: fe8d 2bc1 961a 1440 193c 98c1 bfb0 0141
00000010: e285 76bf dafe 01c2 694d ed3f ff7c 33c1
00000020: 41c7 c5c1 78b9 3dc0 97fc 48c0 93d1 84c0
00000030: 4379 8fbf
-10.722166 2.3141227 -19.029345 8.105651 -0.9629804 -32.49888 1.8539249 -11.218017
-24.722292 -2.964445 -3.1404169 -4.150583 -1.1208881

arith.constant67 f4 [13]
00000000: 0142 5abf 42f6 9f41 3e25 17c2 09c2 e341
00000010: d30c 0fc2 b562 f741 a05e 3fc2 f993 9541
00000020: 06ab fdc1 a840 8c41 126a 00c2 9480 0e41
00000030: 92ee 8dc1
-0.85256964 19.995243 -37.78637 28.469744 -35.762524 30.923197 -47.842407 18.697252
-31.708508 17.53157 -32.103584 8.906391 -17.74149

arith.constant68 f4 [13]
00000000: 525f 4dc1 2b69 f041 79ba 30c2 6b07 2642
00000010: 3a2f 0ec2 8cba c540 6ae5 a6c0 f019 96c1
00000020: 529e a340 b38e b5c1 a225 6240 aa00 22c0
00000030: 66c7 0bc1
-12.835772 30.051352 -44.182102 41.507244 -35.54612 6.179022 -5.2155046 -18.762665
5.113076 -22.694677 3.533547 -2.5312905 -8.736181

arith.constant69 f4 [13]
00000000: 5e72 95c0 88b0 af40 01d5 e6c1 eec8 1e41
00000010: b5d5 3fc1 110f 9cc1 9539 08c1 7a2b 3bc1
00000020: 3aed b1c1 48fd b23f 9cc4 28c1 e1e0 bcbf
00000030: 951b 9dc0
-4.670211 5.490299 -28.854006 9.924055 -11.989675 -19.507357 -8.514058 -11.698114
-22.240833 1.3983545 -10.548 -1.4756128 -4.909617

arith.constant70 f4 [13]
00000000: bac9 cbbf 46fc a33f 74c1 27c1 b658 0341
00000010: c50f 7bc1 5a07 f3c0 7186 a8c1 2fde 363d
00000020: 681b c8c1 cbff 73c0 3a0a 88c0 b746 0c41
00000030: 7bf0 30c1
-1.5920937 1.2811363 -10.48473 8.209158 -15.69135 -7.5946474 -21.065645 0.044645485
-25.013382 -3.8124874 -4.2512484 8.767264 -11.058711

arith.constant71 f4 [13]
00000000: 665e 2bc1 b32e fe41 cdb4 36c2 dc6a ae41
00000010: e835 dec1 5287 d441 f84c 06c2 94fc 4341
00000020: 341f 7fc1 f588 fe3f 6031 fdc1 9947 7c40
00000030: 651c fdbf
-10.7105465 31.772802 -45.676563 21.802177 -27.776321 26.566074 -33.575165 12.249165
-15.945118 1.9885546 -31.649109 3.94187 -1.977429

arith.constant72 f4 [13]
00000000: be74 17c0 f0d1 373f 9afb a2c1 fb0d a041
00000010: aa8c 2140 07ef bec1 63d0 aa40 cb7b 29c1
00000020: 6f65 d8c1 d31b 0d41 e76b 3ec1 f482 ac40
00000030: 3343 4441
-2.3665004 0.71804714 -20.372852 20.006826 2.5242105 -23.866713 5.337938 -10.592723
-27.049528 8.819293 -11.901343 5.3909855 12.266406

arith.constant73 f4 [13]
00000000: 4789 eec0 7b8b 32c0 17c6 64c0 1f13 edc0
00000010: 2d33 85c1 a3e5 013f 0471 98c1 33c7 68c1
00000020: 1543 54c1 0cb4 71c1 c4e5 30c1 286d fbc0
00000030: 72a9 b2c1
-7.4542575 -2.7897632 -3.5745904 -7.408584 -16.649988 0.5074102 -19.055183 -14.548633
-13.266377 -15.106457 -11.056095 -7.8570747 -22.332737

arith.constant74 f4 [13]
00000000: 9aee 75c1 4493 4341 0890 06c2 b31a ed41
00000010: ca45 83c1 85d1 f63f 02c0 e7c1 7eee bb41
00000020: 7fc6 2ec2 c564 1d41 0751 41c1 3a9e 0341
00000030: be4b 99c0
-15.370752 12.2234535 -33.640656 29.638037 -16.409077 1.928269 -28.968754 23.491451
-43.693844 9.837102 -12.082282 8.22613 -4.790496

arith.constant75 f4 [13]
00000000: 1df2 b3c0 ed44 0440 abec 7dc1 7426 3e41
00000010: 9f8d 74c1 6bce a240 5c70 d1c1 58e3 fbc0
00000020: 4125 b6c1 6452 0dc1 f4d3 4ec0 1b11 5ec0
00000030: c2c6 c7c0
-5.623305 2.066707 -15.87028 11.884388 -15.284575 5.0876975 -26.179863 -7.871502
-22.76819 -8.832615 -3.2316866 -3.469794 -6.2430124

arith.constant76 f4 [13]
00000000: 7602 9dc1 139b 4d42 27da 8bc2 45e1 ea41
00000010: 42c7 0cc0 1c05 f1c1 f32b 19c0 2253 54c1
00000020: b6f5 e0c1 ffea 9341 5a93 c1c1 e201 cec1
00000030: ad72 0a42
-19.626202 51.40144 -69.92608 29.359995 -2.1996617 -30.127495 -2.3933074 -13.270296
-28.119976 18.489744 -24.196949 -25.75092 34.611988

arith.constant77 f4 [13]
00000000: b80c f4c0 0cff 893f 8e23 c5c0 7595 d940
00000010: f2ad cac1 e3e1 20c1 63f9 03c1 286e a9c1
00000020: a1a8 48c0 54ef c1c0 b8da 67c0 1cb9 71c1
00000030: faf3 b3c0
-7.6265526 1.0780959 -6.16059 6.7994943 -25.334934 -10.055148 -8.248385 -21.178787
-3.1352923 -6.060465 -3.6227245 -15.107693 -5.6235323

arith.constant78 f4 [13]
00000000: 1a5a c040 8439 c5be 24e1 05c2 801e 1442
00000010: 8385 32c2 0aa4 e841 8814 79c2 7686 1442
00000020: ba4b 47c2 17e5 f741 8267 3fc2 15f3 1d42
00000030: 11d7 16c2
6.0109987 -0.38520443 -33.469864 37.029785 -44.630383 29.080097 -62.27005 37.13131
-49.82395 30.98686 -47.85108 39.487385 -37.710026
